…
n('relu'))\n","model.add(MaxPooling2D(pool_size=(2, 2)))\n","model.add(Dropout(0.25))\n","\n","model.add(Flatten())\n","model.add(Dense(512))\n","model.add(Activation('relu'))\n","model.add(Dropout(0.5))\n","model.add(Dense(num_classes))\n","model.add(Activation('softmax'))\n","model.summary()"],"execution_count":0,"outputs":[{"output_type":"stream","text":["_________________________________________________________________\n","Layer (type)                 Output Shape              Param #   \n","=================================================================\n","conv2d_5 (Conv2D)            (None, 30, 30, 32)        896       \n","_________________________________________________________________\n","activation_7 (Activation)    (None, 30, 30, 32)        0         \n","_________________________________________________________________\n","conv2d_6 (Conv2D)            (None, 28, 28, 32)        9248      \n","_________________________________________________________________\n","activation_8 (Activation)    (None, 28, 28, 32)        0         \n","_________________________________________________________________\n","max_pooling2d_3 (MaxPooling2 (None, 14, 14, 32)        0         \n","_________________________________________________________________\n","dropout_4 (Dropout)          (None, 14, 14, 32)        0         \n","_________________________________________________________________\n","conv2d_7 (Conv2D)            (None, 14, 14, 64)        18496     \n","_________________________________________________________________\n","activation_9 (Activation)    (None, 14, 14, 64)        0         \n","_________________________________________________________________\n","conv2d_8 (Conv2D)            (None, 12, 12, 64)        36928     \n","_________________________________________________________________\n","activation_10 (Activation)   (None, 12, 12, 64)        0         \n","_________________________________________________________________\n","max_pooling2d_4 (MaxPooling2 (None, 6, 6, 64)          0         \n","_________________________________________________________________\n","dropout_5 (Dropout)          (None, 6, 6, 64)          0         \n","_________________________________________________________________\n","flatten_2 (Flatten)          (None, 2304)              0         \n","_________________________________________________________________\n","dense_3 (Dense)              (None, 512)               1180160   \n","_________________________________________________________________\n","activation_11 (Activation)   (None, 512)               0         \n","_________________________________________________________________\n","dropout_6 (Dropout)          (None, 512)               0         \n","_________________________________________________________________\n","dense_4 (Dense)              (None, 10)                5130      \n","_________________________________________________________________\n","activation_12 (Activation)   (None, 10)                0         \n","=================================================================\n","Total params: 1,250,858\n","Trainable params: 1,250,858\n","Non-trainable params: 0\n","_________________________________________________________________\n"],"name":"stdout"}]},{"metadata":{"id":"CKjVv3xuLAVE","colab_type":"code","colab":{}},"cell_type":"code","source":["model.compile(loss='categorical_crossentropy
…
6-63e5-4a0d-a0fd-a3aaf5183a72","executionInfo":{"status":"ok","timestamp":1546109935355,"user_tz":-330,"elapsed":1682,"user":{"displayName":"Varun Pandey","photoUrl":"","userId":"00254569025094859131"}},"colab":{"base_uri":"https://localhost:8080/","height":799}},"cell_type":"code","source":[""],"execution_count":0,"outputs":[{"output_type":"stream","text":["_________________________________________________________________\n","Layer (type)                 Output Shape              Param #   \n","=================================================================\n","conv2d_45 (Conv2D)           (None, 32, 32, 32)        896       \n","_________________________________________________________________\n","dropout_30 (Dropout)         (None, 32, 32, 32)        0         \n","_________________________________________________________________\n","conv2d_46 (Conv2D)           (None, 32, 32, 32)        9248      \n","_________________________________________________________________\n","max_pooling2d_22 (MaxPooling (None, 16, 16, 32)        0         \n","_________________________________________________________________\n","conv2d_47 (Conv2D)           (None, 16, 16, 64)        18496     \n","_________________________________________________________________\n","dropout_31 (Dropout)         (None, 16, 16, 64)        0         \n","_________________________________________________________________\n","conv2d_48 (Conv2D)           (None, 16, 16, 64)        36928     \n","_________________________________________________________________\n","max_pooling2d_23 (MaxPooling (None, 8, 8, 64)          0         \n","_________________________________________________________________\n","conv2d_49 (Conv2D)           (None, 8, 8, 128)         73856     \n","_________________________________________________________________\n","dropout_32 (Dropout)         (None, 8, 8, 128)         0         \n","_________________________________________________________________\n","conv2d_50 (Conv2D)           (None, 8, 8, 128)         147584    \n","_________________________________________________________________\n","max_pooling2d_24 (MaxPooling (None, 4, 4, 128)         0         \n","_________________________________________________________________\n","flatten_11 (Flatten)         (None, 2048)              0         \n","_________________________________________________________________\n","dropout_33 (Dropout)         (None, 2048)              0         \n","_________________________________________________________________\n","dense_19 (Dense)             (None, 1024)              2098176   \n","_________________________________________________________________\n","dropout_34 (Dropout)         (None, 1024)              0         \n","_________________________________________________________________\n","dense_20 (Dense)             (None, 512)               524800    \n","_________________________________________________________________\n","dropout_35 (Dropout)         (None, 512)               0         \n","_________________________________________________________________\n","dense_21 (Dense)             (None, 10)                5130      \n","=================================================================\n","Total params: 2,915,114\n","Trainable params: 2,915,114\n","Non-trainable params: 0\n","_________________________________________________________________\n","None\n"],"name":"stdout"}]},{"metadata":{"id":"-UETD3yYLAf0","colab_type":"code","outputId":"b28ee808-b4d8-4394-a8b8-73fb596059ea","executionInfo":{"status":"err
…
