…
ling2D(pool_size=(2, 2), strides=(2, 2)),\n","    Flatten(),\n","    Dense(4096, activation='relu'),\n","    Dense(4096, activation='relu'),\n","    Dense(1000, activation='softmax')\n","])\n","\n","model.summary()"],"execution_count":1,"outputs":[{"output_type":"stream","text":["Using TensorFlow backend.\n"],"name":"stderr"},{"output_type":"stream","text":["_________________________________________________________________\n","Layer (type)                 Output Shape              Param #   \n","=================================================================\n","conv2d_1 (Conv2D)            (None, 224, 224, 64)      1792      \n","_________________________________________________________________\n","conv2d_2 (Conv2D)            (None, 224, 224, 64)      36928     \n","_________________________________________________________________\n","max_pooling2d_1 (MaxPooling2 (None, 112, 112, 64)      0         \n","_________________________________________________________________\n","conv2d_3 (Conv2D)            (None, 112, 112, 128)     73856     \n","_________________________________________________________________\n","conv2d_4 (Conv2D)            (None, 112, 112, 128)     147584    \n","_________________________________________________________________\n","max_pooling2d_2 (MaxPooling2 (None, 56, 56, 128)       0         \n","_________________________________________________________________\n","conv2d_5 (Conv2D)            (None, 56, 56, 256)       295168    \n","_________________________________________________________________\n","conv2d_6 (Conv2D)            (None, 56, 56, 256)       590080    \n","_________________________________________________________________\n","conv2d_7 (Conv2D)            (None, 56, 56, 256)       590080    \n","_________________________________________________________________\n","max_pooling2d_3 (MaxPooling2 (None, 28, 28, 256)       0         \n","_________________________________________________________________\n","conv2d_8 (Conv2D)            (None, 28, 28, 512)       1180160   \n","_________________________________________________________________\n","conv2d_9 (Conv2D)            (None, 28, 28, 512)       2359808   \n","_________________________________________________________________\n","conv2d_10 (Conv2D)           (None, 28, 28, 512)       2359808   \n","_________________________________________________________________\n","max_pooling2d_4 (MaxPooling2 (None, 14, 14, 512)       0         \n","_________________________________________________________________\n","conv2d_11 (Conv2D)           (None, 14, 14, 512)       2359808   \n","_________________________________________________________________\n","conv2d_12 (Conv2D)           (None, 14, 14, 512)       2359808   \n","_________________________________________________________________\n","conv2d_13 (Conv2D)           (None, 14, 14, 512)       2359808   \n","_________________________________________________________________\n","max_pooling2d_5 (MaxPooling2 (None, 7, 7, 512)         0         \n","_________________________________________________________________\n","flatten_1 (Flatten)          (None, 25088)             0         \n","_________________________________________________________________\n","dense_1 (Dense)              (None, 4096)              102764544 \n","_________________________________________________________________\n","dense_2 (Dense)              (None, 4096)              16781312  \n","_________________________________________________________________\n","dense_3 (Dense)              (None, 1000)              4097000   \n","=================================================================\n","Total params: 138,357,544\n","Trainable params: 138,357,544\n","Non-trainable params: 0\n","_________________________________________________________________\n"],"name":"stdout"}]},{"metadata":{"id":"KzPCRPNmgKTg","colab_type":"code","colab":{}},"cell_type":"code","source":[""],"execution_count":0,"outputs":[]},{"metadat
…
